…
    model = Model(inputs=inputs,outputs=layer)\par
    return model\par
\par
model = RNN()\par
model.summary()\par
model.compile(loss='binary_crossentropy',optimizer=RMSprop(),metrics=['accuracy','mse','mae'])\par
Model: "model"\par
_________________________________________________________________\par
 Layer (type)                Output Shape              Param #   \par
=================================================================\par
 inputs (InputLayer)         [(None, 150)]             0         \par
                                                                 \par
 embedding (Embedding)       (None, 150, 50)           50000     \par
                                                                 \par
 lstm (LSTM)                 (None, 128)               91648     \par
                                                                 \par
 FC1 (Dense)                 (None, 256)               33024     \par
                                                                 \par
 activation (Activation)     (None, 256)               0         \par
                                                                 \par
 dropout (Dropout)           (None, 256)               0         \par
                                                                 \par
 out_layer (Dense)           (None, 1)                 257       \par
                                                                 \par
 activation_1 (Activation)   (None, 1)                 0         \par
                                                                 \par
=================================================================\par
Total params: 174,929\par
Trainable params: 174,929\par
Non-trainable params: 0\par
\par
\b\fs32 Fit the model\b0\fs22\par
model.fit(sequences_matrix,Y_train,batch_size=128,epochs=10,\par
          validation_split=0.2,callbacks=[EarlyStopping(monitor='val_loss',min_delta=0.0001)])\par
…
